examples/CHS/CHS.pt (torch, 940661 bytes, 22 tensors)

weight f4 [960]
0.98945314 0.9891027 0.98912394 0.9890766 0.9863509 0.9887129 0.99020493 0.9965879
0.9877908 0.99113524 0.9865031 0.99028426 0.99236304 0.9896977 0.9887884 0.98355514
0.9901755 0.9932603 0.98839825 0.98965126 0.9960987 0.98706883 0.9902657 0.99692214
0.9880623 0.9927691 0.98886967 0.9897559 0.9830411 0.99127966 0.98728174 0.9883911
0.98612326 0.99127287 0.98972994 0.9874742 0.98993194 0.9851288 0.9875742 0.99095035
0.98932314 0.986585 0.9938206 0.99749017 0.9946989 0.984497 0.9894131 0.9857538
0.98923266 0.9875825 0.98899484 0.98678416 0.99097526 0.985879 0.9868551 0.9871926
0.9827682 0.9869757 0.99563897 0.98916566 0.99120283 0.9902568 0.9927636 0.98685294
0.99084854 0.9896141 0.98914546 0.9897516 0.9906261 0.9968389 0.9885353 0.9888958
0.99263346 0.99310654 0.9899116 0.99104494 0.98752284 0.98632663 0.98695993 0.99064547
0.98850334 0.9867637 0.9914545 0.99296546 0.9902616 0.98912716 0.99635816 0.9918866
0.99002135 0.99053824 0.9875153 0.9914056 0.9884913 0.99186695 0.99239117 0.98995453
0.99047625 0.9915159 0.9905619 0.9886076 0.98564506 0.98742837 0.9884669 0.98592937
0.9913372 0.9874855 0.983872 0.98906565 0.98399377 0.98871386 0.9934954 0.99233997
0.988747 0.98932004 0.9845981 0.98800343 0.98959225 0.9915223 0.9887429 0.9896772
0.9877168 0.9890467 0.99133986 0.9863835 0.9875342 0.9957193 0.9908077 0.98750085
0.98857325 0.9891569 0.98644036 0.9942029 0.98506826 0.9853915 0.98639625 0.9924643
0.98689246 0.989776 0.9840014 0.9896381 0.99091166 0.9859368 0.98593664 0.99077535
0.99106884 0.99094915 0.9862646 0.9888164 0.99095726 0.98562795 0.9916308 0.9925054
0.9937713 0.9853875 0.9875975 0.990071 0.98370546 0.9838492 0.99064636 0.9883366
0.9849335 0.98822236 0.9903645 0.98637295 0.99163556 0.99323803 0.98883355 0.98936075
0.9856588 0.98912984 0.9904078 0.9863381 0.98931986 0.99141884 0.99185824 0.9901497
0.9933684 0.99031365 0.98718566 0.99233687 0.98847204 0.9913132 0.987301 0.98941547
0.9896482 0.9932378 0.9908788 0.9873072 0.9890416 0.99464715 0.9904051 0.9902638
0.9896411 0.9849995 0.99199355 0.988473 0.99094325 0.99381965 0.9842076 0.9880508
0.9905181 0.98871773 0.98942935 0.989773 0.9857284 0.99193305 0.98627514 0.9838723
0.98770136 0.9950636 0.9829428 0.9878026 1.000329 0.9859643 0.9895511 0.9947208
0.98309064 0.9915858 0.99029946 0.9874829 0.9872442 0.9874683 0.99257666 0.9933305
0.98587775 0.9893577 0.98779166 0.9876067 0.9876947 0.9872182 0.9916809 0.9889012
0.9905651 0.99164724 0.98739314 0.9883252 0.9909594 0.988105 0.99165434 0.99152786
0.9902655 0.9898448 0.98831964 0.9869443 0.99220616 0.9851065 0.987054 0.9878391
0.99386233 0.98732036 0.9933727 0.9896575 0.99369776 0.98882383 0.98848385 0.98504925
00000000: cd4c 7d3f d635 7d3f 3a37 7d3f 2034 7d3f
00000010: 7e81 7c3f 4a1c 7d3f 127e 7d3f 6220 7f3f
00000020: dcdf 7c3f 0abb 7d3f 788b 7c3f 4583 7d3f
00000030: 810b 7e3f d45c 7d3f 3d21 7d3f 45ca 7b3f
00000040: 247c 7d3f 4f46 7e3f ab07 7d3f c959 7d3f
00000050: 5300 7f3f 8bb0 7c3f 0e82 7d3f 4a36 7f3f
00000060: a7f1 7c3f 1e26 7e3f 9026 7d3f a560 7d3f
00000070: 95a8 7b3f 81c4 7d3f 7fbe 7c3f 3307 7d3f
00000080: 9372 7c3f 0fc4 7d3f f15e 7d3f 1ccb 7c3f
00000090: 2e6c 7d3f 6731 7c3f aad1 7c3f ecae 7d3f
000000a0: 4844 7d3f d690 7c3f 076b 7e3f 845b 7f3f
000000b0: 96a4 7e3f ff07 7c3f 2d4a 7d3f 5c5a 7c3f
000000c0: 5a3e 7d3f 35d2 7c3f c42e 7d3f e39d 7c3f
000000d0: 8eb0 7d3f 9162 7c3f 89a2 7c3f a7b8 7c3f
000000e0: b296 7b3f 71aa 7c3f 32e2 7e3f f639 7d3f
000000f0: 78bf 7d3f 7881 7d3f c125 7e3f 65a2 7c3f
00000100: 40a8 7d3f 5a57 7d3f a338 7d3f 5c60 7d3f
00000110: ac99 7d3f d630 7f3f a610 7d3f 4628 7d3f
00000120: 3a1d 7e3f 3b3c 7e3f d96a 7d3f 1fb5 7d3f
00000130: 4cce 7c3f e77f 7c3f 68a9 7c3f f19a 7d3f
00000140: 8e0e 7d3f 8c9c 7c3f f6cf 7d3f fc32 7e3f
00000150: c981 7d3f 7037 7d3f 5411 7f3f 48ec 7d3f
00000160: 0a72 7d3f ea93 7d3f cdcd 7c3f c2cc 7d3f
00000170: c40d 7d3f feea 7d3f 590d 7e3f a96d 7d3f
00000180: da8f 7d3f fcd3 7d3f 7795 7d3f 6315 7d3f
00000190: 3c53 7c3f 1bc8 7c3f 2b0c 7d3f de65 7c3f
000001a0: 46c8 7d3f dacb 7c3f 09df 7b3f 6833 7d3f
000001b0: 04e7 7b3f 5a1c 7d3f b755 7e3f fe09 7e3f
000001c0: 861e 7d3f 1444 7d3f 9f0e 7c3f cbed 7c3f
000001d0: eb55 7d3f 68d4 7d3f 411e 7d3f 7c5b 7d3f
000001e0: 02db 7c3f 2a32 7d3f 73c8 7d3f a183 7c3f
000001f0: 0bcf 7c3f 76e7 7e3f 93a5 7d3f dbcc 7c3f
00000200: 2313 7d3f 6339 7d3f 5b87 7c3f 1584 7e3f
00000210: 6f2d 7c3f 9e42 7c3f 7784 7c3f 2412 7e3f
00000220: fca4 7c3f f661 7d3f 84e7 7b3f ec58 7d3f
00000230: 63ac 7d3f 5b66 7c3f 5866 7c3f 74a3 7d3f
00000240: b0b6 7d3f d8ae 7d3f d67b 7c3f 1223 7d3f
00000250: 60af 7d3f 1d52 7c3f 84db 7d3f d514 7e3f
00000260: cc67 7e3f 5b42 7c3f 31d3 7c3f 4b75 7d3f
00000270: 1fd4 7b3f 8bdd 7b3f 009b 7d3f a103 7d3f
00000280: 9a24 7c3f 24fc 7c3f 8788 7d3f f082 7c3f
00000290: d4db 7d3f d944 7e3f 3224 7d3f bf46 7d3f
000002a0: 2354 7c3f 9d37 7d3f 5e8b 7d3f a780 7c3f
000002b0: 1144 7d3f a0cd 7d3f 6cea 7d3f 737a 7d3f
000002c0: 644d 7e3f 3285 7d3f 33b8 7c3f ca09 7e3f
000002d0: 810c 7d3f b4c6 7d3f c2bf 7c3f 554a 7d3f
000002e0: 9659 7d3f d544 7e3f 3caa 7d3f 2ac0 7c3f
000002f0: d531 7d3f 32a1 7e3f 308b 7d3f ee81 7d3f
00000300: 1e59 7d3f ed28 7c3f 4af3 7d3f 910c 7d3f
00000310: 75ae 7d3f f76a 7e3f 07f5 7b3f e6f0 7c3f
00000320: 9892 7d3f 9b1c 7d3f 3e4b 7d3f c361 7d3f
00000330: b258 7c3f 53ef 7d3f 877c 7c3f 0edf 7b3f
00000340: ffd9 7c3f 7dbc 7e3f 24a2 7b3f a2e0 7c3f
00000350: c80a 803f 2868 7c3f 3953 7d3f 06a6 7e3f
00000360: d4ab 7b3f 91d8 7d3f 4484 7d3f aecb 7c3f
00000370: 09bc 7c3f b9ca 7c3f 8119 7e3f e84a 7e3f
00000380: 7c62 7c3f 8c46 7d3f eadf 7c3f cbd3 7c3f
00000390: 8fd9 7c3f 55ba 7c3f cdde 7d3f a128 7d3f
000003a0: ad95 7d3f 98dc 7d3f ccc5 7c3f e102 7d3f
000003b0: 84af 7d3f 73f4 7c3f 0fdd 7d3f c5d4 7d3f
000003c0: 0a82 7d3f 7866 7d3f 8402 7d3f 62a8 7c3f
000003d0: 3901 7e3f f12f 7c3f 92af 7c3f 06e3 7c3f
000003e0: c36d 7e3f 07c1 7c3f ac4d 7e3f 325a 7d3f
000003f0: fa62 7e3f 8f23 7d3f 470d 7d3f 302c 7c3f

bias f4 [960]
-0.0037757517 0.0006034865 0.0026114373 -0.000791174 -0.0021245223 -0.0036856092 0.003901309 -0.0020163748
0.00012432273 -0.0021733488 -0.002931182 -0.0038293437 -0.00017537981 -0.0006997876 -0.00015094464 0.0036895256
0.0014288335 -0.0016946959 -0.0003760796 -0.00273165 -0.0011135527 -0.003936172 0.003058354 -0.0028188706
0.00095488736 -0.0039507276 -0.0012048065 0.0026630282 -0.0014487898 0.0019836759 -0.0013638663 -0.00031430947
-0.00012908864 -0.0008317784 -0.003190156 -0.0014526057 -0.0025504383 -0.0006393563 0.0019396467 -0.0009255768
1.1825358e-05 0.0015127524 0.00012550823 0.0028857237 0.0019908196 -0.0027710998 -0.0017068561 -0.0003155167
0.0010012244 -0.0015522129 0.002069639 -0.0017051726 -0.002047392 -0.0006321116 -0.0028662551 -0.0010003389
-0.0005565669 0.003570559 -0.00021691018 0.0025017788 0.0040896893 -0.0020707422 0.00048162922 -0.0019533276
-0.0035086833 0.000767951 0.0036185416 0.0004508799 -0.0023041037 0.00092715106 0.0024711678 0.0028861105
0.0021691974 -0.0011549512 0.00064110814 -0.0016773917 -5.2217147e-05 -0.0010937699 0.0011761445 -0.0005643476
-0.0039975387 0.001250218 0.0042826454 -0.0008110355 -0.0003631949 -0.00043076047 -0.00091908075 0.0010465825
-0.00028788444 -0.0014854586 0.0014645036 -0.0014137089 -0.0015516161 -0.0012130219 0.0012866801 0.0029430876
-0.0014140204 0.006021406 0.003595851 0.0010554135 0.0010980511 0.0030241793 0.0016554849 -0.0016273491
-0.0009618941 -0.0038365347 0.0036119053 0.00084299594 0.00061912363 0.0011777892 0.006152903 4.657065e-05
0.00185905 -0.0009913837 -0.0016786122 -0.002641877 0.0010807596 0.0002315989 0.0006388099 0.003391722
-0.0012944919 -0.0031541907 -0.002514584 -0.0011454225 0.00041616504 0.0010726805 0.0017401275 0.0015803233
-0.0005218546 -0.0021753656 0.00057864183 -0.0019023184 0.003456961 -0.0022019697 -0.0009958773 -0.00020289565
-0.0011335028 -0.0029426573 0.0006626704 0.0003053409 -0.00026340602 0.0004052138 -0.0032866907 -0.0018521701
-0.0009752677 0.0010650669 -0.0012654056 -0.004825975 0.0005141996 -0.004088846 -0.0015182869 -0.00036869317
-0.0015302598 -0.0014501853 -0.0041645598 -0.0003699756 -0.0032083031 0.0023138102 -0.0012147147 -0.0007513493
0.00042774985 -0.0033769119 0.0028264588 0.0038324986 -0.0022519624 0.0017086539 -0.0032726955 0.0019027533
-0.0050326567 0.0014805202 0.00035572363 -0.00014552106 3.6070913e-05 -0.0020552585 -0.0043604327 -7.25478e-05
-0.0018419065 0.002771351 -0.0032993173 -0.0007731363 0.0029148604 -0.0012770185 0.0032796713 -0.0011018378
-0.0009261277 -0.0013542997 -0.001022425 8.171382e-05 -0.0025640905 0.0029359676 -0.0018266035 0.00041726025
0.00016448194 0.0019125004 3.1253036e-05 -0.0011126535 0.0020793248 -0.004317758 -0.002013608 0.0007278951
0.0031629493 -0.0011778711 -0.0003595197 0.0017189569 0.0024661417 -0.001452537 0.0014256176 -0.0027031074
-0.0031502047 0.0013772369 0.0026628403 0.0035394905 0.0027803725 -0.0032615312 0.0015460029 -0.002746367
-0.0007220205 -0.00036443598 -0.002075311 0.00019319136 -0.0014191502 -0.002693061 -0.0020742372 -0.0024177437
-0.0044802106 0.00057863235 0.006294048 0.00089613884 0.0005621274 0.0032820145 -0.00026576547 0.0053451913
-0.00042496008 0.0022331318 0.0006273616 0.00082702254 -0.0010142551 -0.0023725368 -0.00050517166 -0.0031461471
-0.001752699 -0.0013532918 0.0013849245 -0.00036253183 0.0033075307 0.0009859814 0.00012768997 -0.00066718715
-0.00090040895 0.0023174232 -0.0010030904 0.00081355456 -0.0031027226 -0.0009047301 -2.9659523e-05 0.0016807246
00000000: 9a72 77bb 4b33 1e3a a624 2b3b ca66 4fba
00000010: 923b 0bbb 438a 71bb 1bad 7f3b 2825 04bb
00000020: a15c 0239 be6e 0ebb 1319 40bb baf5 7abb
00000030: 29e6 37b9 f371 37ba e546 1eb9 f8cb 713b
00000040: b247 bb3a 8f20 deba 8d2c c5b9 7b05 33bb
00000050: a1f4 91ba 01fb 80bb aa6e 483b cdbc 38bb
00000060: 6851 7a3a 1b75 81bb 99ea 9dba 3386 2e3b
00000070: 52e5 bdba 8f00 023b c2c3 b2ba e7c9 a4b9
00000080: f85b 07b9 b40b 5aba f011 51bb 5c65 beba
00000090: 4125 27bb 7a9a 27ba be3b fe3a 68a2 72ba
000000a0: 8765 4637 8c47 c63a dc9a 0339 691e 3d3b
000000b0: 6978 023b 579b 35bb 96b8 dfba ef6b a5b9
000000c0: 843b 833a 9f73 cbba c8a2 073b 1980 dfba
000000d0: 8a2d 06bb 4bb4 25ba c8d7 3bbb ce1d 83ba
000000e0: 93e6 11ba 0a00 6a3b 6272 63b9 e2f4 233b
000000f0: cd02 863b 4ab5 07bb 2e83 fc39 6603 00bb
00000100: f0f1 65bb 5250 493a 0e25 6d3b 1364 ec39
00000110: 7200 17bb 0e0c 733a 51f3 213b e624 3d3b
00000120: 1829 0e3b bb61 97ba 0a10 283a eddb dbba
00000130: bc03 5bb8 d45c 8fba dc28 9a3a baf0 13ba
00000140: c9fd 82bb 5bde a33a 6f55 8c3b ac9b 54ba
00000150: 326b beb9 b1d7 e1b9 77ee 70ba 7b2d 893a
00000160: 32ef 96b9 b8b3 c2ba 96f4 bf3a 334c b9ba
00000170: 995f cbba 43fe 9eba d2a5 a83a d1e0 403b
00000180: a756 b9ba 374f c53b 5ea8 6b3b cd55 8a3a
00000190: 7bec 8f3a 4f31 463b dbfc d83a c64c d5ba
000001a0: 9f27 7cba 5f6e 7bbb b7b5 6c3b 80fc 5c3a
000001b0: af4c 223a 0c60 9a3a 4b9e c93b db54 4338
000001c0: 5eab f33a 51f1 81ba e104 dcba 5723 2dbb
000001d0: 46a8 8d3a 5bd9 7239 cf75 273a a747 5e3b
000001e0: f1ab a9ba 8ab6 4ebb b8cb 24bb 0022 96ba
000001f0: ba30 da39 2f99 8c3a fd14 e43a da22 cf3a
00000200: 12cd 08ba 9490 0ebb ffaf 173a 3757 f9ba
00000210: 2e8e 623b ec4e 10bb 1988 82ba 63c0 54b9
00000220: 0b92 94ba 99d9 40bb 0fb7 2d3a 2916 a039
00000230: c219 8ab9 e072 d439 8565 57bb 84c4 f2ba
00000240: 1ca9 7fba b799 8b3a f7db a5ba 3623 9ebb
00000250: 5acb 063a bafb 85bb 4101 c7ba 294d c1b9
00000260: 0093 c8ba 2514 beba dc76 88bb 49f9 c1b9
00000270: 6542 52bb 4ba3 173b 1037 9fba 33f6 44ba
00000280: 9d43 e039 2e4f 5dbb 1c3c 393b a82a 7b3b
00000290: a995 13bb e9f4 df3a b87a 56bb ce65 f93a
000002a0: fce8 a4bb 040e c23a 6b80 ba39 0397 18b9
000002b0: d94a 1738 84b1 06bb f6e1 8ebb ce24 98b8
000002c0: 206c f1ba 8e9f 353b 5c39 58bb 4cac 4aba
000002d0: 3e07 3f3b a161 a7ba c1ef 563b 8b6b 90ba
000002e0: 61c7 72ba c282 b1ba e402 86ba c65d ab38
000002f0: 4d0a 28bb 5d69 403b a56a efba b9c3 da39
00000300: c978 2c39 ddac fa3a b115 0338 75d6 91ba
00000310: 4845 083b fb7b 8dbb bdf6 03bb 37d0 3e3a
00000320: 7c49 4f3b cc62 9aba eb7d bcb9 9f4e e13a
00000330: fe9e 213b 0e63 beba cadb ba3a 9e26 31bb
00000340: aa73 4ebb 6784 b43a 0c83 2e3b ccf6 673b
00000350: e936 363b 6abf 55bb 40a3 ca3a 64fc 33bb
00000360: fa45 3dba c511 bfb9 f101 08bb 6993 4a39
00000370: c702 baba 117e 30bb edef 07bb 0273 1ebb
00000380: bbce 92bb 5caf 173a 4d3e ce3b dcea 6a3a
00000390: bb5b 133a 1117 573b 7056 8bb9 b726 af3b
000003a0: 2dcd deb9 bc59 123b 8675 243a 8bcc 583a
000003b0: c1f0 84ba 907c 1bbb 7f6d 04ba 972f 4ebb
000003c0: d2ba e5ba f060 b1ba 5b86 b53a 3312 beb9
000003d0: 28c3 583b 0c3c 813a 84e4 0539 2ce6 2eba
000003e0: 6c09 6cba e9df 173b 217a 83ba b944 553a
000003f0: 0c57 4bbb 692b 6dba 57cd f8b7 c24b dc3a

weight f4 [96, 960]
-0.01817745 0.011113914 0.014268099 -0.024750084 -0.007975592 -0.02927434 -0.02003568 -0.0034853735
-0.008784872 -0.0057413653 -0.00010514986 0.031067023 -0.02313279 -0.024485946 -0.015759436 -0.027593726
0.02593161 -0.0239837 0.027210502 0.00793889 -0.0004282235 -0.030784914 0.016679054 -0.020777348
-0.03023432 -0.0069036665 0.01123853 -0.01977083 -0.0050391043 -0.018757215 0.030919047 -0.008785966
0.00073453336 0.022760898 0.00038896274 -0.019437196 -0.025410144 0.005838785 0.028952742 -0.002817143
0.021828245 -0.016301064 -0.01336567 -0.010489837 0.028665833 0.021739315 0.004322792 0.021919679
-0.019481493 0.022720644 0.026184842 -0.017087296 -0.018686926 -0.026040388 -0.02368724 -0.017055376
-0.03156056 -0.024893196 0.018452678 0.0029123016 0.016643107 -0.00974107 0.0049227206 -0.010521145
0.00026431266 0.002734121 -0.0077664936 -0.0027419718 -0.013686872 0.01712724 0.013464858 0.028705359
0.024009291 -0.008935342 -0.01201828 -0.0019881756 0.019446574 -0.0013043871 -0.0040625054 0.020085225
0.0004868436 -0.0039069983 -0.011901089 -0.007969561 0.029882535 -0.01907936 -0.0214489 -0.031082476
-0.031015918 0.008493363 -0.023355901 0.025848772 0.011473516 0.021577263 0.021184064 -0.026588127
0.0046548056 0.013717035 0.022262244 -0.0302951 -0.0039590024 -0.015440798 0.00030440072 -0.017839216
0.024003474 -0.016182754 -0.023615243 0.017634913 -0.01705059 -0.014553046 -0.0049499786 0.00715273
-0.009534131 0.008544098 -0.0063006836 -0.008752156 -0.000338829 -0.004712404 0.013571702 0.01720127
-0.011542719 -0.030963644 0.016163722 0.022111412 -0.010394497 -0.030125916 0.012716838 -0.02063737
-0.019051138 0.029945057 -0.021585716 0.01982566 0.028024886 0.025041396 0.004690354 0.020235227
0.024282834 0.021918057 0.017103177 0.008412614 -0.012102417 -0.031223053 -0.028355777 0.0011863388
0.028479928 0.016813861 -0.013035044 -0.013097833 -0.006991947 0.029108547 0.0058932807 -0.0017114367
-0.021653943 -0.013548856 -0.027817398 0.02984103 -0.01498055 -0.0070039905 0.016852215 -0.00097415363
0.023061782 -0.027212037 0.0005583244 0.019311689 -0.03328802 -0.008198558 0.03210212 0.0036588835
0.02442438 0.004681439 0.021581307 -0.010836864 -0.01006311 0.008497681 -0.0231927 -0.0075975633
-0.0030728218 0.0011051255 0.0107786525 -0.0131513 -0.014349795 -0.022004569 -0.001848481 0.0286663
0.008634874 -0.00053098524 0.024577307 0.01989643 -0.0028487165 0.023318294 0.024153473 -0.020199934
-0.0038465452 0.015517525 -0.029927874 0.019198585 0.027237782 0.015867708 -0.0022472492 -0.023977697
-0.02553896 0.010106846 0.026992792 -0.0073271524 0.029634738 0.019564608 0.00044416028 0.010701895
-0.0016474333 0.008116239 0.009376312 0.012362671 -0.029466003 0.009568562 -0.014809716 -0.02566291
-0.016100498 -0.02214481 -0.026955469 -9.0044676e-05 -0.001154904 0.018871378 0.025106765 0.0181888
-0.0116869565 0.030656662 -0.016475132 -0.0026408779 -0.018259546 -0.0018412902 -0.024738926 -0.021577116
-0.028734855 -0.000986903 0.024508554 0.024122745 0.02125297 0.017846903 0.025145443 -0.010544297
-0.0005882771 -0.014031324 -0.027684124 0.0076219663 0.014850218 -0.009868066 -0.01091 -0.00017352254
0.02625582 0.021690568 -0.031815153 -0.022922836 -0.023107123 -0.00649859 0.024152365 -0.003481924
00000000: e0e8 94bc 2217 363c bfc4 693c b0c0 cabc
00000010: 0fac 02bc bed0 efbc de21 a4bc dd6a 64bb
00000020: 6cee 0fbc 1022 bcbb e783 dcb8 4580 fe3c
00000030: fa80 bdbc c096 c8bc ef19 81bc 3d0c e2bc
00000040: 876e d43c 7779 c4bc 8fe8 de3c 1e12 023c
00000050: 2f83 e0b9 a530 fcbc 83a2 883c 4235 aabc
00000060: f7ad f7bc 2738 e2bb d021 383c 70f6 a1bc
00000070: 121f a5bb bba8 99bc f149 fd3c 03f3 0fbc
00000080: b38d 403a 1075 ba3c b2ed cb39 c13a 9fbc
00000090: ef28 d0bc 4753 bf3b 4d2e ed3c d19f 38bb
000000a0: 26d1 b23c cf89 85bc affb 5abc 91dd 2bbc
000000b0: 9cd4 ea3c a616 b23c 35a6 8d3b e690 b33c
000000c0: a797 9fbc a520 ba3c 9881 d63c a8fa 8bbc
000000d0: 5315 99bc a752 d5bc be0b c2bc b7b7 8bbc
000000e0: a545 01bd d1ec cbbc 122a 973c 50dc 3e3b
000000f0: 2057 883c 0299 1fbc c64e a13b e160 2cbc
00000100: 7293 8a39 f02e 333b 127e febb a7b2 33bb
00000110: e73e 60bc 6d4e 8c3c b59b 5c3c 8027 eb3c
00000120: 22af c43c 8a65 12bc 52e8 44bc 0d4c 02bb
00000130: 6c4e 9f3c f8f7 aaba c41e 85bb c589 a43c
00000140: 0b3f ff39 4706 80bb c9fc 42bc c392 02bc
00000150: 38cc f43c 514c 9cbc 9bb5 afbc ada0 febc
00000160: 1815 febc bf27 0b3c e054 bfbc cec0 d33c
00000170: 6afb 3b3c cdc2 b03c 348a ad3c 58cf d9bc
00000180: 5787 983b 6abd 603c 4f5f b63c 6e2d f8bc
00000190: 85ba 81bb 67fb 7cbc f997 9f39 8c23 92bc
000001a0: efa2 c43c b291 84bc c174 c1bc 1877 903c
000001b0: aead 8bbc e66f 6ebc 6e33 a2bb 7361 ea3b
000001c0: 0b35 1cbc 8bfc 0b3c f775 cebb 3465 0fbc
000001d0: dca4 b1b9 836a 9abb d85b 5e3c aee9 8c3c
000001e0: ac1d 3dbc 78a7 fdbc c869 843c fe22 b53c
000001f0: ae4d 2abc a0ca f6bc 495a 503c b40f a9bc
00000200: 2211 9cbc 564f f53c 87d4 b0bc 6c69 a23c
00000210: 7294 e53c 9d23 cd3c 8bb1 993b 59c4 a53c
00000220: cbec c63c 7f8d b33c f61b 8c3c 10d5 093c
00000230: 3749 46bc 7dc7 ffbc 604a e8bc ed7e 9b3a
00000240: bd4e e93c 39bd 893c f090 55bc 4b98 56bc
00000250: b41c e5bb 0c75 ee3c 6c1c c13b 4952 e0ba
00000260: 9c63 b1bc 05fc 5dbc 50e1 e3bc 2d75 f43c
00000270: fb70 75bc bb81 e5bb a80d 8a3c 585e 7fba
00000280: 10ec bc3c c7eb debc 845c 123a 8c33 9e3c
00000290: 0559 08bd 3f53 06bc 837d 033d e1c9 6f3b
000002a0: a315 c83c c266 993b 48cb b03c 1a8d 31bc
000002b0: bedf 24bc db39 0b3c 9efe bdbc fbf4 f8bb
000002c0: 6561 49bb dcd9 903a f298 303c 8d78 57bc
000002d0: 671b 6bbc ed42 b4bc bb48 f2ba 97d5 ea3c
000002e0: 4979 0d3c d131 0bba 5956 c93c d7fd a23c
000002f0: 88b1 3abb 0206 bf3c 81dd c53c 557a a5bc
00000300: 5216 7cbb 383d 7e3c 4d2b f5bc 5a46 9d3c
00000310: c521 df3c fffc 813c 9646 13bb e06c c4bc
00000320: 1537 d1bc 2f97 253c fd1f dd3c 9c18 f0bb
00000330: 8dc4 f23c f545 a03c 2fde e839 0057 2f3c
00000340: b0ee d7ba f9f9 043c 1a9f 193c cd8c 4a3c
00000350: b062 f1bc 75c5 1c3c 73a4 72bc 063b d2bc
00000360: 31e5 83bc 0869 b5bc b7d1 dcbc 5ed6 bcb8
00000370: 2660 97ba 2698 9a3c b4ac cd3c ae00 953c
00000380: a67a 3fbc ae23 fb3c dbf6 86bc 9412 2dbb
00000390: 0b95 95bc 7257 f1ba 4aa9 cabc 7ec2 b0bc
000003a0: 5c65 ebbc f85a 81ba 2ac6 c83c 109d c53c
000003b0: b51a ae3c ab33 923c d1fd cd3c fdc1 2cbc
000003c0: 9c36 1aba a3e3 65bc d1c9 e2bc b0c1 f93b
000003d0: 544e 733c abad 21bc dbbf 32bc 9af3 35b9
000003e0: 7216 d73c 6bb0 b13c 9b50 02bd acc8 bbbc
000003f0: 264b bdbc 20f2 d4bb 2edb c53c fe30 64bb

bias f4 [96]
0.017146863 0.024215098 0.0001855148 -0.025818886 -0.012034422 0.011511164 -0.023412902 0.006191307
0.0251272 -0.018113028 0.025912507 0.014456316 0.024573516 -0.024804784 0.027545076 0.0038878818
0.009164909 0.024574425 -0.028566679 0.028438086 0.021009019 0.01638965 -0.0039941533 0.016848305
0.0045288275 -0.022910824 0.033021014 0.006604813 -0.026821956 -0.010768005 0.009549912 -0.0020587621
-0.023159815 0.0020526375 0.018987356 -0.010771211 0.0073493477 -0.018505335 0.03190108 -0.025319647
-0.0015200761 0.017693693 -0.005661658 -0.0023721922 0.020356031 -0.025786791 0.0010798853 0.0093674315
0.0045582624 -0.011524748 -0.0048517385 0.015861306 0.021127388 -0.0121433735 0.028785361 -9.232891e-05
0.027697284 0.011101965 -0.007830111 0.02454272 -0.0052212626 0.016354142 0.009551244 -0.032698624
-0.019054526 0.0128073115 -0.012940754 -0.020683741 0.01775692 -0.017099448 0.023712944 -0.013027742
-0.021938905 0.025320962 -0.019961687 -0.031113416 -0.007123692 0.02891586 -0.009244084 -0.028768655
0.018517539 0.013265207 -0.019778384 0.026244 -0.012743091 0.026749963 -0.024454938 -0.01106939
-0.03399701 -0.028602744 0.025614636 0.008521971 0.024705153 -0.022013916 0.036844734 -0.030969251
00000000: 9477 8c3c be5e c63c c086 4239 2182 d3bc
00000010: 062c 45bc 5299 3c3c 6acc bfbc 73e0 ca3b
00000020: 8fd7 cd3c c661 94bc 7746 d43c 2fda 6c3c
00000030: 664e c93c 6733 cbbc 36a6 e13c d5cb 7e3b
00000040: 6a28 163c 4e50 c93c ab04 eabc fdf6 e83c
00000050: 1b1b ac3c 9643 863c 63e1 82bb 7505 8a3c
00000060: 8f66 943b 7baf bbbc 0b41 073d 306d d83b
00000070: b8b9 dbbc 496c 30bc 3c77 1c3c 4cec 06bb
00000080: a7b9 bdbc 8b85 063b 5f8b 9b3c bc79 30bc
00000090: ccd2 f03b 8098 97bc b5aa 023d 266b cfbc
000000a0: 4a3d c7ba 5df2 903c 6e85 b9bb c876 1bbb
000000b0: b1c1 a63c d23e d3bc f08a 8d3a db79 193c
000000c0: 7a5d 953b 4cd2 3cbc 55fb 9ebb 92ef 813c
000000d0: 5813 ad3c 00f5 46bc 47cf eb3c b5a0 c1b8
000000e0: 6ae5 e23c 04e5 353c de49 00bc d00d c93c
000000f0: 2017 abbb 1ff9 853c d27c 1c3c feee 05bd
00000100: 3d18 9cbc c2d5 513c 7505 54bc f370 a9bc
00000110: f676 913c 2414 8cbc a641 c23c 4f72 55bc
00000120: 38b9 b3bc e86d cf3c b186 a3bc 90e1 febc
00000130: dc6d e9bb f4e0 ec3c 8074 17bc 3eac ebbc
00000140: 18b2 973c 5056 593c 4706 a2bc a8fd d63c
00000150: 66c8 50bc bd22 db3c b955 c8bc 635c 35bc
00000160: 7340 0bbd 4d50 eabc c9d5 d13c bd9f 0b3c
00000170: 7662 ca3c 8756 b4bc 81ea 163d 3ab3 fdbc

aa_embed f4 [20, 16]
0.060350075 -0.48838663 -1.499379 0.6134486 0.16935821 -0.37442654 -0.083284386 1.6070883
0.6897147 -0.38347125 -0.5208101 -0.38703656 1.7021444 2.1224158 1.998404 0.6544045
0.26743728 -0.24467038 -0.60276467 -0.13848808 0.25791293 -0.49757448 -1.3057994 -1.0686092
-0.6047325 -0.61437 0.3442954 1.0181342 0.35544246 -0.6321337 1.1178399 -0.25382668
1.0903677 0.82831925 0.2887026 -1.1167866 0.4969251 -1.0572698 -1.0384558 0.6993265
-0.23749414 0.69149363 0.22346772 0.46677813 -1.2064478 -0.47844112 0.2531991 0.97066295
0.36608714 0.19020785 0.2025075 0.055906273 0.7559009 0.5278981 1.2720451 1.2878695
0.41506398 1.2740756 -0.086256236 -0.79682124 0.13732833 1.1200913 1.1647297 -1.3622944
0.7877703 0.35375112 -0.77491105 0.36654782 1.4154108 -0.78632313 -0.28286362 -0.18296136
-0.109518625 1.1608416 0.54439354 0.55567986 -0.52474314 -1.9678206 0.49858394 1.9323183
1.0497879 0.36477476 0.58252746 -0.16017942 0.3484197 0.45943254 -0.6000468 -0.7306922
0.15939836 -0.976311 1.1936591 -1.1767216 -0.8381861 -0.3382838 0.020702133 0.36081332
-1.3171325 0.29978088 0.96167064 -0.005651779 -1.3340571 -0.39907846 -0.31382257 0.67020625
0.9767014 0.5007298 0.5356718 0.9315753 -1.5633771 -2.9383953 -1.269512 -0.82059705
-1.24997 -0.046274383 0.1702218 -0.41376615 0.055286765 0.19452891 -0.9962517 1.3163882
1.4874154 -1.2124405 0.45010647 -0.51066375 0.903322 1.2869005 -1.4776899 -0.25038195
-0.76352686 1.0265349 -1.1635752 -1.1065278 0.20350589 0.53270835 0.5094924 0.4809092
-0.1909964 -0.5385426 0.19758193 0.13376707 0.9571637 -1.2178195 -0.5442574 -0.56649953
0.29022175 -1.3944936 1.0834706 1.2374574 0.9836448 -0.30903718 -0.49879533 -1.6293268
-0.7346816 0.87319535 -0.41257045 0.7584189 -0.15490358 0.14596386 -0.04769849 -0.8218632
-1.0875016 0.2958976 0.76832235 1.2738718 -0.7744309 1.3374827 -1.0871398 0.81694645
0.3594817 -0.006159331 0.54140097 -1.0955298 -0.62440175 0.014970238 1.2101778 -0.6382285
-1.597457 0.6289054 -2.699128 1.6055195 1.3435168 -0.90587044 -1.5273393 0.6023264
-0.5205594 1.2455046 -0.015077375 -0.31563962 0.38351965 -0.30922163 -0.0049761697 -0.13807267
-0.2168036 0.47010824 -0.48319268 -1.3235031 1.2639803 -0.48849797 1.3855331 0.2787158
0.54377776 0.75866246 -0.85794854 -0.1057962 0.38972828 0.30150005 0.10736901 -0.71079975
-0.16475499 -0.9955088 0.06163597 0.03845196 -1.5265641 -0.41566163 -0.3914738 -0.5627475
-1.0710435 0.6762019 0.024351195 0.7525609 -1.4722279 -0.88580304 -0.327688 0.16588815
-1.4773145 0.85426533 -0.534619 1.6191508 -1.1797212 1.6375777 1.9681131 -0.91989905
0.24111292 -1.1157278 -1.5003268 0.6020525 0.006186516 0.4917728 0.5437597 0.04384031
-0.48750874 -1.239638 0.27119207 0.7995007 0.28894427 -0.32517713 -0.20505403 -0.12632976
0.33942175 -1.8347057 1.8476149 -0.15653244 -0.57099766 0.035295606 0.39014053 -0.3085035
00000000: a431 773d d00d fabe a7eb bfbf f80a 1d3f
00000010: 3d6c 2d3e d6b4 bfbe 0191 aabd 12b5 cd3f
00000020: 2591 303f 5856 c4be d053 05bf a829 c6be
00000030: dedf d93f a9d5 0740 b4cb ff3f 0e87 273f
00000040: 8aed 883e df8a 7abe c94e 1abf d2cf 0dbe
00000050: 2a0d 843e 15c2 febe 6f24 a7bf 30c8 88bf
00000060: c0cf 1abf 5a47 1dbf 7d47 b03e 3952 823f
00000070: 8efc b53e 84d3 21bf 6115 8f3f 92f5 81be
00000080: 2b91 8b3f bb0c 543f d4d0 933e ddf2 8ebf
00000090: f76c fe3e 9e54 87bf 1fec 84bf 1007 333f
000000a0: aa31 73be ba05 313f b9d4 643e 8bfd ee3e
000000b0: e26c 9abf 3cf6 f4be 50a3 813e 5e7d 783f
000000c0: c66f bb3e d9c5 423e 205e 4f3e fafd 643d
000000d0: b982 413f 5424 073f 60d2 a23f e8d8 a43f
000000e0: 4483 d43e e914 a33f 1ca7 b0bd 7afc 4bbf
000000f0: cc9f 0c3e 275f 8f3f dd15 953f aa5f aebf
00000100: 50ab 493f de1e b53e 9260 46bf 28ac bb3e
00000110: 2e2c b53f 794c 49bf 80d3 90be 395a 3bbe
00000120: 4d4b e0bd 7596 943f 605d 0b3f 0941 0e3f
00000130: 9155 06bf 8ce1 fbbf 6546 ff3e 3556 f73f
00000140: 735f 863f c2c3 ba3e 8520 153f 1306 24be
00000150: 1164 b23e be3a eb3e ab9c 19bf a50e 3bbf
00000160: 5339 233e 85ef 79bf d2c9 983f d09e 96bf
00000170: 5d93 56bf 8933 adbe 8597 a93c 86bc b83e
00000180: cc97 a8bf e17c 993e 0c30 763f 8f32 b9bb
00000190: 62c2 aabf 0354 ccbe 5aad a0be a392 2b3f
000001a0: 1a09 7a3f d42f 003f c921 093f b87b 6e3f
000001b0: be1c c8bf ab0e 3cc0 5f7f a2bf a612 52bf
000001c0: 04ff 9fbf 358a 3dbd a04e 2e3e 28d9 d3be
000001d0: 6074 623d 9632 473e 5a0a 7fbf 697f a83f
000001e0: a163 be3f 4031 9bbf 5b74 e63e dcba 02bf
000001f0: 1c40 673f 28b9 a43f f124 bdbf 1032 80be
00000200: 7f76 43bf 7f65 833f 08f0 94bf b4a2 8dbf
00000210: d963 503e 935f 083f 186e 023f bb39 f63e
00000220: 8f94 43be eedd 09bf eb52 4a3e 3cfa 083e
00000230: ae08 753f 82e1 9bbf 7454 0bbf 1d06 11bf
00000240: f297 943e c47e b2bf 2aaf 8a3f 0165 9e3f
00000250: 25d0 7b3f 1f3a 9ebe 1a62 ffbe c88d d0bf
00000260: 1814 3cbf bb89 5f3f 6f3c d3be be27 423f
00000270: 0b9f 1ebe 8d77 153e 7e5f 43bd a065 52bf
00000280: 4133 8bbf e47f 973e c6b0 443f 3b0e a33f
00000290: 1a41 46bf a232 ab3f 6627 8bbf 6723 513f
000002a0: fc0d b83e 37d4 c9bb 4199 0a3f 523a 8cbf
000002b0: cbd8 1fbf bb45 753c 1be7 9a3f f162 23bf
000002c0: 7979 ccbf f2ff 203f 83be 2cc0 aa81 cd3f
000002d0: 5cf8 ab3f 20e7 67bf db7f c3bf 1032 1a3f
000002e0: 6143 05bf b26c 9f3f 1807 77bc 849b a1be
000002f0: b05c c43e 4c52 9ebe 230f a3bb ec62 0dbe
00000300: c301 5ebe 07b2 f03e 0865 f7be 8d68 a9bf
00000310: 1bca a13f 681c fabe 2659 b13f d6b3 8e3e
00000320: 0535 0b3f b437 423f 84a2 5bbf aeab d8bd
00000330: 778a c73e 375e 9a3e 49e4 db3d f9f6 35bf
00000340: 88b5 28be aad9 7ebf 0076 7c3d cd7f 1d3d
00000350: 7466 c3bf 9ad1 d4be 416f c8be 3810 10bf
00000360: f417 89bf 911b 2d3f 287c c73c d5a7 403f
00000370: f771 bcbf fdc3 62bf b9c6 a7be 95de 293e
00000380: a418 bdbf 22b1 5a3f cadc 08bf 5540 cf3f
00000390: 1b01 97bf 259c d13f 21eb fb3f 817e 6bbf
000003a0: 4ee6 763e 2bd0 8ebf b50a c0bf 1d20 1a3f
000003b0: 42b8 ca3b a5c9 fb3e d633 0b3f e691 333d
000003c0: bf9a f9be 75ac 9ebf b0d9 8a3e 14ac 4c3f
000003d0: 81f0 933e 9e7d a6be aff9 51be 975c 01be
000003e0: b0c8 ad3e a3d7 eabf a57e ec3f 0a4a 20be
000003f0: e72c 12bf 2092 103d 80c0 c73e 2cf4 9dbe

weight f4 [128]
0.99516886 0.9941834 0.9978623 0.99363935 0.99617064 0.99779516 0.9912501 0.99190784
0.9944001 1.0046089 0.9952451 1.0029845 0.99702775 1.0005414 0.9933975 0.992147
0.99881077 0.9976619 0.9938728 0.99555004 0.9988311 0.9886803 0.99874437 1.0003091
0.99040604 0.99459577 0.9962677 0.9922524 1.0005474 0.99852556 0.9980141 1.0000616
1.0003015 0.9959084 0.9994737 0.9982087 0.9930706 0.9999674 0.9985805 0.9988638
1.0010631 0.99810517 0.9998563 0.99324137 1.0030965 0.9995772 0.9936818 0.9980151
0.9957886 0.99345356 1.0005302 0.99710834 0.99370575 0.9968193 1.006983 0.9936551
0.99674654 0.99932086 0.99047655 0.99754596 0.996576 0.9969917 1.0000279 0.9919409
0.99248725 1.0016606 0.9909313 0.99168646 0.99331844 0.99486953 0.99705565 0.99980056
0.9902458 0.9954832 0.9913268 0.9930022 0.9896017 0.9935511 0.99580437 0.9930871
0.9956024 0.9943595 0.9914083 0.9996586 0.99492234 0.99771786 0.99489635 0.99680436
0.9917824 0.9962599 0.98954004 0.99609756 0.99743646 0.99402785 1.0024852 0.9931786
0.9986397 1.0012059 1.0005039 1.0003346 0.99671185 0.99401385 0.9980341 0.9987645
0.99762094 0.9982194 0.9969755 0.9944592 0.9937577 1.0046794 0.9963448 1.0010115
0.9957269 0.996799 0.9981273 0.99233127 0.99220324 0.9996205 0.99899477 0.9954814
0.99768096 0.9978894 0.99969083 0.99266875 0.9980895 0.9981811 0.9951754 0.9970517
00000000: 63c3 7e3f ce82 7e3f e773 7f3f 265f 7e3f
00000010: 0a05 7f3f 816f 7f3f 91c2 7d3f aced 7d3f
00000020: 0191 7e3f 0697 803f 62c8 7e3f cc61 803f
00000030: 363d 7f3f be11 803f 4c4f 7e3f 59fd 7d3f
00000040: 10b2 7f3f c566 7f3f 736e 7e3f 5edc 7e3f
00000050: 65b3 7f3f 271a 7d3f b6ad 7f3f 210a 803f
00000060: 408b 7d3f d49d 7e3f 660b 7f3f 4104 7e3f
00000070: f011 803f 5f9f 7f3f da7d 7f3f 0502 803f
00000080: e109 803f daf3 7e3f 82dd 7f3f 9b8a 7f3f
00000090: e039 7e3f ddfd 7f3f f9a2 7f3f 8ab5 7f3f
000000a0: d622 803f d283 7f3f 95f6 7f3f 1145 7e3f
000000b0: 7765 803f 4be4 7f3f ee61 7e3f eb7d 7f3f
000000c0: 00ec 7e3f f952 7e3f 6011 803f 7e42 7f3f
000000d0: 8063 7e3f 8d2f 7f3f d2e4 803f 2e60 7e3f
000000e0: c82a 7f3f 7ed3 7f3f df8f 7d3f 2c5f 7f3f
000000f0: 9b1f 7f3f d93a 7f3f ea00 803f d7ef 7d3f
00000100: a513 7e3f 6a36 803f acad 7d3f 2adf 7d3f
00000110: 1e4a 7e3f c5af 7e3f 0a3f 7f3f eef2 7f3f
00000120: c080 7d3f fdd7 7e3f 98c7 7d3f 6435 7e3f
00000130: 8956 7d3f 5d59 7e3f 09ed 7e3f f53a 7e3f
00000140: cddf 7e3f 588e 7e3f efcc 7d3f a0e9 7f3f
00000150: 3bb3 7e3f 706a 7f3f 87b1 7e3f 922e 7f3f
00000160: 74e5 7d3f e40a 7f3f 7f52 7d3f 4000 7f3f
00000170: ff57 7f3f 9c78 7e3f 6f51 803f f440 7e3f
00000180: daa6 7f3f 8427 803f 8310 803f f70a 803f
00000190: 8228 7f3f b177 7e3f 2a7f 7f3f 08af 7f3f
000001a0: 1664 7f3f 4e8b 7f3f c939 7f3f e194 7e3f
000001b0: e866 7e3f 5699 803f 7410 7f3f 2521 803f
000001c0: f5e7 7e3f 382e 7f3f 4585 7f3f 6c09 7e3f
000001d0: 0801 7e3f 21e7 7f3f 1fbe 7f3f ded7 7e3f
000001e0: 0568 7f3f ae75 7f3f bdeb 7f3f 8a1f 7e3f
000001f0: cb82 7f3f cc88 7f3f d1c3 7e3f c83e 7f3f

bias f4 [128]
-0.00049102656 0.00013495416 -0.0013497425 -0.00016713077 -0.0019821902 0.0006999385 0.0021865496 0.002344966
0.0020050395 0.0033329364 -0.00047967906 -0.0002887136 -0.00049791613 0.0031303426 -0.0059025297 0.00041833328
-0.002498594 -0.003015336 0.0012346045 3.860322e-05 0.0011865104 0.004700216 0.0025000672 -0.00032414316
0.004024211 -0.0015401976 0.0029355832 0.0015117379 -0.0019705861 0.0019799648 0.00094154244 -0.0012498986
-0.006994418 -0.00015746683 0.002536116 -0.0028367122 -0.0005887656 -0.004016045 0.0019989233 -0.0042379797
0.0019581034 0.000284912 -0.0016476315 0.0026568621 0.002688138 -0.0002152089 0.0023369316 -0.0033705109
0.0001870891 -0.0005314111 -0.005417993 0.003101601 0.0018390218 -0.0010027589 0.0048068156 0.0006000706
-0.00019524625 -0.0023746742 0.0016222957 0.0005950767 -0.002030198 -0.0039155716 -0.0016241204 0.0026692445
0.0021695753 0.0017765557 0.00017221077 0.0012237665 0.00064869685 -0.00026022844 0.0006358775 0.00316501
0.0035186864 -0.0036484308 0.004594575 0.00095132354 0.0034911598 0.00047938817 -0.0015785841 0.0037882265
0.0034073165 -0.0004940052 0.0028165153 -0.0006079217 -0.0022690361 0.0011334046 0.0021356249 -0.0031861828
-0.0013883229 -0.0006192747 0.0019384614 -0.0014304327 0.0010521553 0.0003864011 0.005577131 0.0019367147
-0.00421272 -0.0010930244 0.0033058787 0.005272519 0.00090172124 -0.00026651841 0.00052707276 0.006180681
-0.002979662 -0.00035624582 -3.5040888e-05 0.0013756421 0.0013208161 -0.0015071861 -0.000757532 -0.0031372232
-0.0013174299 -0.0017256534 0.002495238 0.000807508 0.0009812429 -0.0011293791 -6.133721e-05 0.00050079485
-0.0019741033 -0.0024185674 -0.0020352989 -0.0011949455 0.0006967526 0.00057715265 0.001047763 -0.003938095
00000000: 3cb8 00ba 7b82 0d39 d8e9 b0ba d33f 2fb9
00000010: a2e7 01bb 147c 373a 374c 0f3b 00ae 193b
00000020: fb66 033b 656d 5a3b 6f7d fbb9 7c5e 97b9
00000030: 9686 02ba 6f26 4d3b 026a c1bb be53 db39
00000040: 74bf 23bb f29c 45bb 74d2 a13a e4e9 2138
00000050: af84 9b3a 4504 9a3b 2bd8 233b c2f1 a9b9
00000060: 87dd 833b 75e0 c9ba ea62 403b 8225 c63a
00000070: f324 01bb 4cc2 013b d8d1 763a a3d3 a3ba
00000080: 6e31 e5bb ae1d 25b9 f734 263b 22e8 39bb
00000090: 6457 1aba 0799 83bb 5e00 033b c0de 8abb
000000a0: 8653 003b 3e60 9539 57f5 d7ba c01e 2e3b
000000b0: 792b 303b b3a9 61b9 3527 193b cae3 5cbb
000000c0: 592d 4439 654e 0bba 6b89 b1bb 3b44 4b3b
000000d0: 550b f13a 016f 83ba 7e82 9d3b 0e4e 1d3a
000000e0: 04bb 4cb9 6ca0 1bbb 36a3 d43a ecfe 1b3a
000000f0: 120d 05bb 324e 80bb 70e0 d4ba 7eee 2e3b
00000100: 6f2f 0e3b 51db e83a 7a93 3439 ca66 a03a
00000110: 4f0d 2a3a 456f 88b9 04b1 263a 0e6c 4f3b
00000120: c399 663b 831a 6fbb 178e 963b 3e62 793a
00000130: f1cb 643b 6456 fb39 7ee8 ceba e543 783b
00000140: 494d 5f3b 2180 01ba 4995 383b ef5c 1fba
00000150: 1cb4 14bb bf8e 943a d7f5 0b3b 47cf 50bb
00000160: 63f8 b5ba d256 22ba f913 fe3a 5b7d bbba
00000170: 79e8 893a e195 ca39 5ec0 b63b 5dd9 fd3a
00000180: db0a 8abb d043 8fba 71a7 583b 18c5 ac3b
00000190: 7d61 6c3a 7fbb 8bb9 412b 0a3a 4f87 ca3b
000001a0: 6f46 43bb 81c6 bab9 def8 12b8 e44e b43a
000001b0: 3c1f ad3a c68c c5ba 1d95 46ba df99 4dbb
000001c0: 9dad acba 522f e2ba 2687 233b f2ae 533a
000001d0: 0c9d 803a ad07 94ba 2aa2 80b8 c647 033a
000001e0: f55f 01bb d480 1ebb a662 05bb b89f 9cba
000001f0: 47a6 363a 0f4c 173a 1855 893a 230b 81bb

weight f4 [256, 128]
-0.04550948 -0.017796095 0.022286387 0.053314857 0.02516513 -0.020970983 0.051064815 0.07227507
0.0014308941 0.01743475 -0.014227218 -0.048838466 -0.08350641 -0.07781502 -0.045482274 0.053975806
0.043297753 0.047612797 0.073839515 -0.041794874 -0.0032578248 -0.061729252 0.0650085 0.08335432
-0.07310388 -0.06878017 0.081840925 0.026727911 -0.020332519 0.008478801 0.039570373 0.076245464
0.04446168 -0.08868457 -0.07662 -0.063690305 -0.048090514 0.0037697505 -0.039661523 0.022169203
-0.06131723 -0.03653291 -0.030252516 -0.057533443 0.04285241 0.057497356 -0.02916053 -0.019057294
0.02584886 0.0012753786 -0.013713955 0.06035511 0.0544057 -0.042964358 0.07342652 0.05805441
-0.045996834 -0.010074388 -0.051752042 0.09118945 0.027089959 -0.021531792 0.0131097995 -0.025641894
-0.018781057 -0.05654153 -0.08624958 0.07800243 -0.046630032 -0.08230325 0.049839586 0.027810393
-0.022078995 0.07930254 -0.019828757 0.025841057 -0.028106516 0.030933103 0.004872973 -0.05090497
-0.054260433 -0.06420545 0.051028818 -0.01805031 -0.019790374 -0.038367543 0.038633402 -0.059031066
-0.043271787 -0.016311293 0.014868669 0.03411792 0.08328182 0.05872184 -0.04798716 -0.01980062
-0.06954758 0.07727634 0.049789254 -0.03868689 0.009768756 0.027827844 0.040503543 0.062991254
0.0064041484 0.022945028 0.027072074 0.01332524 0.03745099 -0.06822393 -0.007328778 -0.08131065
0.072380625 0.016768372 -0.010961632 0.032160453 0.03357543 -0.033747092 -0.026087483 0.054166418
-0.055262253 -0.040250264 0.027221715 -0.009570786 0.07695451 0.05854208 0.050978158 0.036901228
-0.023200456 -0.027330799 0.046550103 -0.012927448 -0.050176896 0.051648233 0.012977118 0.03446497
-0.047789607 0.021871384 0.02121323 -0.019388512 0.03755044 -0.04529989 0.0010700341 -0.06904845
0.05898972 -0.08226299 -0.023752647 0.0026613872 0.014996524 0.038751334 0.0053925137 -0.0023378034
0.040580895 0.00967904 -0.0097653335 0.033821587 0.04091654 0.069111966 0.07886858 0.04192527
0.040393207 -0.03268413 0.05070978 -0.07511256 0.015302498 -0.06151887 0.02091541 0.010242167
-0.03851433 -0.02482854 -0.02627913 0.035187468 0.007195112 -0.077867 -0.07098243 -0.0026891113
0.02292276 0.052601323 -0.019627959 -0.030803047 -0.071162075 0.007603311 -0.04027839 0.07905622
-0.08364126 -0.026528494 -0.059917048 -0.067299075 0.041156072 -0.042316068 -0.02685498 -0.038400054
0.08581118 0.024015227 0.0108315805 0.027871862 0.0853857 -0.08350453 -0.05860505 0.03838492
-0.04176044 -0.079814196 -0.012068796 -0.055805348 0.0711494 -0.062559664 0.015690794 -0.04654325
-0.050809965 -0.04777482 0.046850976 -0.028662626 0.025356062 -0.047269423 0.030491218 -0.067575306
0.03576741 0.06815266 0.02546949 -0.04191834 0.09182753 0.057415504 -0.01189773 0.05599836
0.05536783 0.082178 0.06589928 0.08024488 -0.08609667 0.025811993 0.010834631 0.037326418
-0.04446401 0.035697836 -0.069150075 -0.016283296 0.015404643 0.05716223 -0.012467145 -0.003755832
0.0124681685 -0.05557853 0.08633812 0.016719373 0.066454306 0.018656366 -0.042812064 0.02811719
-0.06241739 0.031703595 -0.017748231 0.025496043 0.05236578 0.02565361 0.028408062 0.024465492
00000000: 2668 3abd 1ec9 91bc f191 b63c ae60 5a3d
00000010: 1a27 ce3c 57cb abbc 5729 513d f404 943d
00000020: d78c bb3a 52d3 8e3c 4719 69bc d80a 48bd
00000030: 6905 abbd 7b5d 9fbd 9f4b 3abd bc15 5d3d
00000040: fc58 313d a305 433d 2c39 973d 1a31 2bbd
00000050: 3b81 55bb d0d7 7cbd 2d23 853d abb5 aa3d
00000060: 7db7 95bd 9edc 8cbd 379c a73d 7ef4 da3c
00000070: 6290 a6bc abea 0a3c 8b14 223d 9526 9c3d
00000080: 731d 363d 41a0 b5bd f2ea 9cbd 1070 82bd
00000090: 8ffa 44bd eb0d 773b 1f74 22bd 309c b53c
000000a0: c727 7bbd 88a3 15bd 20d4 f7bc 30a8 6bbd
000000b0: 0286 2f3d 5982 6b3d 10e2 eebc 0b1e 9cbc
000000c0: fdc0 d33c 9b2a a73a 7fb0 60bc eb36 773d
000000d0: 83d8 5e3d 65fb 2fbd a560 963d 76ca 6d3d
000000e0: 2d67 3cbd 0c0f 25bc f3f9 53bd 89c1 ba3d
000000f0: c3eb dd3c 7163 b0bc 7cca 563c f30e d2bc
00000100: bbda 99bc 1798 67bd 9fa3 b0bd bdbf 9f3d
00000110: 22ff 3ebd 9b8e a8bd 9824 4c3d 9fd2 e33c
00000120: 02df b4bc 5f69 a23d eb6f a2bc a0b0 d33c
00000130: a33f e6bc 6b67 fd3c 76ad 9f3b bb81 50bd
00000140: 3040 5ebd 267e 83bd 9803 513d 3ede 93bc
00000150: 6c1f a2bc 4927 1dbd 0f3e 1e3d 8fca 71bd
00000160: c23d 31bd 439f 85bc b89b 733c 3bbf 0b3d
00000170: a98f aa3d 5086 703d 2f8e 44bd e934 a2bc
00000180: f66e 8ebd 0f43 9e3d d1ef 4b3d 2576 1ebd
00000190: 220d 203c 38f7 e33c 0be7 253d 8f01 813d
000001a0: e4d9 d13b 36f7 bb3c 41c6 dd3c 1c52 5a3c
000001b0: 3666 193d fdb8 8bbd 3f26 f0bb 3386 a6bd
000001c0: 4b3c 943d d35d 893c 6b98 33bc aeba 033d
000001d0: 6486 093d 643a 0abd 6bb5 d5bc 9bdd 5d3d
000001e0: ac5a 62bd 76dd 24bd 1300 df3c c9ce 1cbc
000001f0: 539a 9d3d d2c9 6f3d 79ce 503d be25 173d
00000200: e20e bebc d7e4 dfbc 52ab 3e3d a6cd 53bc
00000210: 4a86 4dbd 198d 533d fa9d 543c 242b 0d3d
00000220: 09bf 43bd 9e2b b33c 5ec7 ad3c a8d4 9ebc
00000230: 7dce 193d 618c 39bd 6340 8c3a 4669 8dbd
00000240: 349f 713d 8079 a8bd e994 c2bc ab6a 2e3b
00000250: fbb3 753c b8b9 1e3d afb3 b03b d535 19bb
00000260: 2738 263d d694 1e3c c7fe 1fbc 8188 0a3d
00000270: 1a98 273d 938a 8d3d da85 a13d d5b9 2b3d
00000280: 5973 253d cbdf 05bd 0fb5 4f3d 9dd4 99bd
00000290: 54b7 7a3c 36fb 7bbd cb56 ab3c c3ce 273c
000002a0: 34c1 1dbd 3965 cbbc 5447 d7bc bc20 103d
000002b0: f9c4 eb3b bc78 9fbd 3c5f 91bd cd3b 30bb
000002c0: 83c8 bb3c 7c74 573d d0ca a0bc ac56 fcbc
000002d0: 6cbd 91bd 3225 f93b f4fa 24bd 3ae8 a13d
000002e0: 1c4c abbd 4952 d9bc 946b 75bd 19d4 89bd
000002f0: 4593 283d 9d53 2dbd fafe dbbc 6049 1dbd
00000300: c6bd af3d 95bb c43c f176 313c 8853 e43c
00000310: b3de ae3d 6c04 abbd d90b 70bd 8239 1d3d
00000320: ff0c 2bbd a075 a3bd 33bc 45bc 2694 64bd
00000330: c7b6 913d 481f 80bd fb89 803c 23a4 3ebd
00000340: 1c1e 50bd 88af 43bd cfe6 3f3d e2cd eabc
00000350: 84b7 cf3c 959d 41bd b8c8 f93c ec64 8abd
00000360: d980 123d 9f93 8b3d 64a5 d03c 91b2 2bbd
00000370: 1210 bc3d 852c 6b3d b2ee 42bc 895e 653d
00000380: 61c9 623d f04c a83d 34f6 863d 6d57 a43d
00000390: 7353 b0bd ac73 d33c bc83 313c 96e3 183d
000003a0: e51f 36bd e537 123d 8e9e 8dbd 8c64 85bc
000003b0: c163 7c3c f122 6a3d ff42 4cbc 6824 76bb
000003c0: 4a47 4c3c 50a6 63bd 0ad2 b03d 11f7 883c
000003d0: 3219 883d 3cd5 983c b45b 2fbd 0556 e63c
000003e0: 61a9 7fbd a1db 013d bd64 91bc 14dd d03c
000003f0: 807d 563d 8527 d23c 06b8 e83c db6b c83c

bias f4 [256]
-0.07821706 0.060082167 0.013372656 -0.024510209 -0.026953949 -0.067583054 -0.081162535 0.0030047658
0.06452141 -0.013871639 -0.036244165 0.07914343 0.03794206 -0.07216925 -0.06746462 -0.051801074
-0.07170474 -0.07839484 0.055763666 -0.0033071924 0.0062425854 -0.0033462367 -0.048285 0.045682557
0.069113314 -0.014300712 0.08882449 -0.018388698 0.012892621 -0.04880836 0.052958537 0.031797558
-0.004874218 -0.051095918 -0.014088974 0.06000329 0.06852326 0.0330301 0.07528537 0.027504846
0.024190107 0.0869195 -0.04846898 0.07199845 -0.05556852 -0.045988984 0.025457352 -0.011164969
-0.014074585 0.031026471 -0.011151735 0.061481215 0.02979609 -0.013778225 -0.0021865119 -0.04943231
-0.033406433 0.06934887 -0.080921 0.059988186 0.020573255 -0.052395366 -0.016687548 0.07443133
0.054721694 -0.057265457 0.04569617 0.03750083 -0.030937277 0.044637598 0.0100574475 -0.024670264
-0.04505466 -0.031767577 0.043778256 0.08781174 -0.008571167 -0.08167543 -0.05385939 0.05273879
-0.0025448443 -0.035254404 -0.006446378 0.0518017 -0.009613677 0.03754522 -0.031867977 -0.03144752
0.036725294 -0.008368642 0.08366976 0.037785243 0.025256345 -0.01990321 -0.013541024 -0.035871815
-0.04709885 -0.010885177 0.02356952 -0.07791585 -0.0626034 0.02241349 -0.046384394 0.08335553
-0.004384102 0.051543336 -0.07813165 0.028619615 -0.06083378 -0.054600038 -0.031577744 0.030642662
0.014845802 -0.022282017 -0.006668777 -0.07525263 -0.047625333 -0.070746906 -0.07961212 0.053486913
0.019508103 0.014630279 -0.06929825 -0.05202352 0.00445127 -0.060978007 0.07850885 -0.006318136
-0.015581756 0.046881177 -0.0031870378 -0.005022835 0.06897282 0.07802937 0.068812616 0.036950305
-0.020107603 -0.045622457 -0.01208553 0.03291775 -0.008730164 0.02063818 -0.025720062 0.04430179
0.023529805 0.06503763 0.035853 -0.08274125 -0.023820601 -0.05166635 -0.060200997 0.018062469
-0.0069260555 -0.019130921 -0.023098782 0.021689327 -0.033016797 0.0018138242 -0.053814758 -0.007461003
0.019160492 0.034886237 -0.011700384 0.010376992 0.016039358 -0.06580772 0.08277304 -0.053721327
0.08906989 -0.06178061 -0.006773306 -0.016423345 0.014582059 0.019893052 0.0786601 -0.05842654
-0.05362323 -0.027327325 0.0061001247 0.07087535 0.048790913 0.045975603 0.04843299 0.07244945
-0.088306606 0.03228645 0.019320184 0.06021602 -0.03852165 0.086525664 -0.08289988 -0.07348077
-0.07056624 -0.04104136 -0.0076670656 0.012211322 -0.035551567 -0.07320831 0.083850265 0.028146174
0.08350843 -0.012654826 0.07823479 0.047710843 0.06716673 -0.07987807 -0.01824295 -0.0074588666
0.015244337 0.06346228 -0.036057398 -0.0316837 0.03821018 0.029307658 0.059685722 0.035452094
-0.011129787 0.010233545 -0.048528608 0.020465352 0.013408842 -0.086087406 -0.06747469 0.044965275
-0.077799715 0.06112973 0.051450152 -0.062194407 -0.05838131 -0.069914326 0.031771176 8.260582e-05
-0.01766216 -0.031002201 -0.00460259 -0.0755729 0.00217015 0.04824493 -0.083735265 0.030561859
-0.074891865 0.04520719 -0.057578932 -0.060215667 -0.014403862 -0.04897329 -0.055103883 -0.071025275
-0.025524605 -0.0011344095 -0.07893998 -0.016674357 -0.012124644 -0.031438656 0.03657724 0.06825467
00000000: 4430 a0bd b818 763d fc18 5b3c a2c9 c8bc
00000010: 87ce dcbc fc68 8abd 8b38 a6bd 9beb 443b
00000020: cd23 843d df45 63bc c374 14bd f315 a23d
00000030: 2269 1b3d 79cd 93bd e42a 8abd 5d2d 54bd
00000040: efd9 92bd 798d a0bd 7168 643d 7bbd 58bb
00000050: 9a8e cc3b 894c 5bbb 7ec6 45bd a21d 3b3d
00000060: 488b 8d3d 894d 6abc 9de9 b53d e5a3 96bc
00000070: 923b 533c 46eb 47bd 0deb 583d 283e 023d
00000080: e7b7 9fbb f449 51bd 71d5 66bc 03c6 753d
00000090: ec55 8c3d 924a 073d 372f 9a3d d851 e13c
000000a0: 552a c63c da02 b23d 6987 46bd ec73 933d
000000b0: d19b 63bd f25e 3cbd f08b d03c 46ed 36bc
000000c0: 1799 66bc 3a2b fe3c c4b5 36bc bad3 7b3d
000000d0: ee16 f43c 10be 61bc 954b 0fbb 8979 4abd
000000e0: 2fd5 08bd c806 8e3d e9b9 a5bd 2cb6 753d
000000f0: 3e89 a83c 869c 56bd 53b4 88bc 746f 983d
00000100: db23 603d 2f8f 6abd e82b 3b3d 789a 193d
00000110: 2c70 fdbc ead5 363d fec7 243c 4b19 cabc
00000120: 3c8b 38bd b81e 02bd d450 333d a4d6 b33d
00000130: 146e 0cbc 7345 a7bd aa9b 5cbd a104 583d
00000140: 67c7 26bb ec66 10bd 233c d3bb 052e 543d
00000150: af82 1dbc 04c9 193d ff87 02bd 1dcf 00bd
00000160: 436d 163d a11c 09bc 0d5b ab3d b3c4 1a3d
00000170: 65e6 ce3c 0f0c a3bc 2cdb 5dbc 53ee 12bd
00000180: b9ea 40bd be57 32bc de14 c13c 5892 9fbd
00000190: 3636 80bd 7f9c b73c 90fd 3dbd 4eb6 aa3d
000001a0: 83a8 8fbb 1b1f 533d 7d03 a0bd af73 ea3c
000001b0: d72c 79bd 4aa4 5fbd aa57 01bd 5206 fb3c
000001c0: cf3b 733c c788 b6bc c285 dabb 0d1e 9abd
000001d0: c812 43bd c1e3 90bd ae0b a3bd 1815 5b3d
000001e0: 75cf 9f3c d6b3 6f3c 3eec 8dbd 9d16 55bd
000001f0: f6db 913b 13c4 79bd 3fc9 a03d 5e08 cfbb
00000200: 9f4a 7fbc 7a06 403d 9fdd 50bb 9896 a4bb
00000210: 9f41 8d3d ddcd 9f3d a1ed 8c3d 3459 173d
00000220: b3b8 a4bc 9dde 3abd 6302 46bc c3d4 063d
00000230: f608 0fbc 6711 a93c e1b2 d2bc cb75 353d
00000240: 94c1 c03c 7332 853d 98da 123d 3f74 a9bd
00000250: 6c23 c3bc 18a0 53bd 5295 76bd bef7 933c
00000260: f7f3 e2bb 73b8 9cbc a839 bdbc d1ad b13c
00000270: 9f3c 07bd d7bd ed3a dd6c 5cbd 6e7b f4bb
00000280: 77f6 9c3c dfe4 0e3d f8b2 3fbc 4204 2a3c
00000290: f964 833c 33c6 86bd e984 a93d e50a 5cbd
000002a0: 466a b63d aa0d 7dbd 9cf2 ddbb 408a 86bc
000002b0: 97e9 6e3c c1f6 a23c 8c18 a13d ab50 6fbd
000002c0: 08a4 5bbd 8edd dfbc 8ee3 c73b 1827 913d
000002d0: fbd8 473d ea50 3c3d ac61 463d 6160 943d
000002e0: 18da b4bd cc3e 043d 5d45 9e3c 13a5 763d
000002f0: e1c8 1dbd 5e34 b13d 6ac7 a9bd 167d 96bd
00000300: 0885 90bd fc1a 28bd 023c fbbb ff11 483c
00000310: 859e 11bd 3dee 95bd b0b9 ab3d ce92 e63c
00000320: 7806 ab3d 3056 4fbc 9039 a03d 726c 433d
00000330: b68e 893d 1d97 a3bd 3d72 95bc 8269 f4bb
00000340: 62c3 793c 83f8 813d ecb0 13bd c4c6 01bd
00000350: 4782 1c3d 9d16 f03c 0479 743d 3736 113d
00000360: b659 36bc 99aa 273c efc5 46bd f4a6 a73c
00000370: c2b0 5b3c 984e b0bd 2c30 8abd 822d 383d
00000380: 7555 9fbd 2b63 7a3d 65bd 523d 90bf 7ebd
00000390: 3e21 6fbd 3e2f 8fbd 7e22 023d a93c ad38
000003a0: 3cb0 90bc 54f8 fdbc 53d1 96bb f7c5 9abd
000003b0: 1339 0e3b 7a9c 453d 657d abbd dd5c fa3c
000003c0: e860 99bd 2d2b 393d e3d7 6bbd b4a4 76bd
000003d0: 2dfe 6bbc 3798 48bd 9cb4 61bd b375 91bd
000003e0: fa18 d1bc 77b0 94ba 49ab a1bd a998 88bc
000003f0: 71a6 46bc d2c5 00bd 04d2 153d 1bc9 8b3d
